models/f_k.pt (torch, 24608 bytes, 5 tensors)

layer1.weight f4 [50, 99]
0	0xbdaa142e	-0.0830463
1	0x3d371d96	0.04470595
2	0xbcc65164	-0.024208732
3	0xbd47dc1a	-0.04879389
4	0xbba10840	-0.0049143136
5	0x3d0fb45a	0.035084106
6	0x3d821b63	0.0635288
7	0x3cff0abc	0.031133048
8	0x3dc78f8f	0.097441785
9	0x3d0af106	0.033921264
10	0x3dcd7629	0.10032303
11	0xbd8bad71	-0.06820191
12	0x3d54353a	0.051808573
13	0xbdafc1da	-0.08581896
14	0x3d050842	0.03247858
15	0x3dacc913	0.08436789
16	0xbcc82f4c	-0.024436615
17	0x3be2f7c0	0.0069265068
18	0xbdcadc20	-0.09905267
19	0x3cafb674	0.021449305
20	0xbc4804d0	-0.012208179
21	0xbda884c4	-0.08228448
22	0x3cde3094	0.027122773
23	0xbda0dc1e	-0.07854484
24	0xbce47670	-0.027888507
25	0xbd7fbe36	-0.06243726
26	0x3dae332d	0.08505855
27	0x3d93692d	0.07197795
28	0xbd3004a8	-0.04297319
29	0x3c87b154	0.016564049
30	0x3db50889	0.088395186
31	0xbd91f930	-0.07127607
32	0xbd92c0b7	-0.07165664
33	0x3d5f69ca	0.054544248
34	0xbcd674a4	-0.026178665
35	0x3d71794a	0.05895356
36	0xbd7ff3d7	-0.062488403
37	0x3da42b35	0.080160536
38	0xbda6cc52	-0.0814444
39	0xbd7c6f27	-0.06162944
40	0x3da7611b	0.08172818
41	0x3c00fb28	0.00787238
42	0xbdba0860	-0.09083629
43	0x3aa009c0	0.0012209937
44	0xbd89953e	-0.06717919
45	0x3c553ea0	0.013015419
46	0xbc3404c0	-0.010987461
47	0x3d93d1ad	0.07217727
48	0xbd88e834	-0.06684914
49	0xbc94054c	-0.018068932
50	0xbd7387b3	-0.059455585
51	0xbd2b11b1	-0.04176492
52	0xbd78ce05	-0.06074335
53	0x3dc2a5db	0.09504291
54	0x3d74f606	0.05980494
55	0x3c9294ec	0.017893277
56	0x3d72dc9e	0.05929243
57	0xbd0199d8	-0.031640857
58	0xbbba3150	-0.005682148
59	0x3c9ecfec	0.019386254
60	0x3bcfd900	0.006343007
61	0x3d1a2d96	0.03764113
62	0x3dbf4b8d	0.09340582
63	0x3cc78880	0.02435708
64	0x3ce2e8ac	0.027698837
65	0x3c947974	0.01812432
66	0x3c15da28	0.009146251
67	0xbd924a98	-0.07143134
68	0xbdb9519a	-0.090487674
69	0xbd279f4b	-0.040923398
70	0x3da54c29	0.08071167
71	0xba89d7c0	-0.0010516569
72	0xbcadc794	-0.02121333
73	0x3db98d09	0.090601034
74	0xbda1a812	-0.07893385
75	0xbd5bfcaa	-0.053707756
76	0x3b91b630	0.0044467673
77	0xbc94b048	-0.018150464
78	0xbd8a5d58	-0.06756085
79	0xbdc28699	-0.09498329
80	0x3af435c0	0.0018631741
81	0x3d0ea472	0.034824796
82	0xbc201730	-0.009771153
83	0xbdbbc21d	-0.091678835
84	0xbc94eaac	-0.018178307
85	0xbc9c8c24	-0.019109793
86	0xbd09a304	-0.03360273
87	0xbdc6d353	-0.09708276
88	0x3ca79ef8	0.020461544
89	0x3d5b776e	0.053580694
90	0xbd313c28	-0.04327026
91	0xbdbcee4f	-0.09225141
92	0xbd65ed1b	-0.056134325
93	0x3db4591d	0.088060595
94	0x3d9c318d	0.076266386
95	0xba63fc80	-0.0008696988
96	0xbd1413a4	-0.036151543
97	0x3d9424f9	0.072336145
98	0x3d89772f	0.067121856
99	0x3d01abd2	0.031658
100	0x3db9dc0d	0.090751745
101	0xbd406407	-0.046970394
102	0x3c967098	0.018364236
103	0x3dbe5569	0.092936344
104	0x3cfcfd34	0.030882455
105	0xbd8e2c0b	-0.06941994
106	0xbd48e7ce	-0.04904919
107	0xbaafe340	-0.0013419166
108	0x3d9de98b	0.077105604
109	0xbceada98	-0.028668687
110	0x3d25114e	0.040299706
111	0xbd8ab75c	-0.06773254
112	0x3cf54d34	0.02994404
113	0x3c21dda8	0.009879507
114	0xbd1b5184	-0.037919536
115	0x3d8c51a5	0.0685151
116	0x3d64abe2	0.055827983
117	0xbca4177c	-0.02003073
118	0xbcde6a7c	-0.027150385
119	0xbdb8920b	-0.090122305
120	0x3d9d9433	0.076942824
121	0x3dbeba8f	0.09312927
122	0x3cf48b84	0.029851682
123	0x3c5e9c80	0.013587117
124	0x3c4b2740	0.012399495
125	0x3cda6874	0.026661135
126	0xbdb8797d	-0.09007547
127	0xbceefcac	-0.029173218
128	0x3c81e170	0.015854567
129	0xbbe05050	-0.0068455115
130	0x3c312ba8	0.010813631
131	0xbce95394	-0.028482236
132	0x3cfa5a6c	0.030560695
133	0xbd58fb5c	-0.05297409
134	0xbcfa0a2c	-0.030522428
135	0x3d58e852	0.052955933
136	0x3c53b898	0.012922429
137	0x3be07aa0	0.0068505555
138	0xbd9bea4e	-0.076130494
139	0x3dcc8c93	0.0998775
140	0x3dafc357	0.0858218
141	0xbd9a81ba	-0.07544275
142	0xbdbbfb37	-0.09178775
143	0x3bdbdad0	0.006709434
144	0x3d548226	0.05188193
145	0xbdc1641e	-0.09442924
146	0xbc7f9820	-0.015600234
147	0x3cba39d0	0.022732645
148	0x3db9e4eb	0.09076866
149	0x3d864b01	0.065572746
150	0x3d0975c2	0.03355957
151	0xbc906504	-0.017626293
152	0x3d4c8e72	0.049940534
153	0xbd16487e	-0.036690228
154	0xbd9f01b4	-0.07763997
155	0x3d38e2fe	0.04513835
156	0xbdbe4ebb	-0.092923604
157	0x3d921cd9	0.071344085
158	0xbdbb41ea	-0.091434315
159	0x3d16d436	0.036823474
160	0x3c195480	0.009358525
161	0xbdbe641e	-0.092964396
162	0x3cb77950	0.022396713
163	0xbc82021c	-0.015870146
164	0xbda65411	-0.08121503
165	0xbdcb47b4	-0.09925786
166	0xbd9dbc7a	-0.07701965
167	0x3d82b15f	0.06381487
168	0xbd358a58	-0.044321388
169	0x3ce16dc4	0.02751816
170	0x3d1a9ae2	0.037745364
171	0xbd9cb266	-0.07651214
172	0xbc5eab78	-0.013590686
173	0xbd9a0d6d	-0.07522092
174	0xbc970e1c	-0.018439345
175	0x3cdeffb4	0.027221538
176	0xbb177c00	-0.0023114681
177	0x3d85b977	0.06529515
178	0x3d10bb52	0.035334893
179	0x3d9eb7df	0.077499144
180	0x3cb49e04	0.022048004
181	0x3dc0ad19	0.09408016
182	0xbdc46fdd	-0.09591649
183	0xbc2fe1e8	-0.010735013
184	0x3c6642c8	0.014054008
185	0xbc8121a8	-0.015763119
186	0xbdcc4f12	-0.09976019
187	0x3bcfb070	0.0063381717
188	0x3ccc493c	0.024937265
189	0xbd49aee1	-0.049239043
190	0xbd38908c	-0.045059726
191	0xbc645af0	-0.013937697
192	0x3d431fae	0.047637634
193	0x3cb200bc	0.021728866
194	0x3da33f33	0.07971039
195	0x3db02863	0.08601453
196	0xbdade5b7	-0.0849108
197	0xbda1ce52	-0.079006806
198	0x3d3d82ba	0.04626725
199	0x3c914448	0.017732754
200	0xbb411620	-0.002946265
201	0x3db9202b	0.09039339
202	0x3da2854d	0.07935581
203	0xbdbd54e9	-0.09244711
204	0x3c8c4bf4	0.017126061
205	0x3d707712	0.058707304
206	0xbd3f6a9a	-0.046732523
207	0xbd130b94	-0.035899714
208	0xbd358c9e	-0.044323556
209	0xbd9254e3	-0.07145097
210	0x3d9cbc0f	0.07653057
211	0xbd1034e2	-0.035206683
212	0xbd67f266	-0.056627654
213	0x3d6836a6	0.05669274
214	0xbd62d6c8	-0.055380613
215	0x3dc64005	0.096801795
216	0xbd7b5b9f	-0.061366674
217	0xbdb7f3e5	-0.08982066
218	0xbd95b24b	-0.07309397
219	0xbcc7b5d8	-0.024378702
220	0x3d61064a	0.05493764
221	0xbc64c120	-0.01396206
222	0xbd9804e8	-0.07422811
223	0xbced9844	-0.02900327
224	0x3cb5861c	0.022158675
225	0x3d810181	0.06299115
226	0x3bbb93a0	0.0057243854
227	0x3db61af9	0.088918634
228	0xbd6e4456	-0.05817064
229	0xbd71cd79	-0.059033845
230	0xbd0959cc	-0.033532903
231	0xbcc00438	-0.023439512
232	0xbce065c0	-0.027392268
233	0xbdbac25d	-0.09119103
234	0xbdb8ecde	-0.09029554
235	0xbda68195	-0.081301846
236	0xbd8b4924	-0.0680106
237	0xbdbec2a0	-0.093144655
238	0x3c5c6ef8	0.013454191
239	0x3dcc7a7d	0.099843
240	0x3cf830fc	0.030296795
241	0x3db55325	0.08853749
242	0x3da80c0b	0.08205422
243	0x3d015062	0.0315708
244	0x3d9452b7	0.07242339
245	0xbcde8aa4	-0.027165718
246	0xbda63b22	-0.081167474
247	0x3d3a0f62	0.045424826
248	0x3d087ad2	0.033320256
249	0x3dc5a645	0.09650854
250	0xbd6a1aa8	-0.057154328
251	0xbcb79278	-0.022408709
252	0xbbdd6950	-0.006756939
253	0xbccab288	-0.024743333
254	0xbc314bb8	-0.010821275
255	0xbdc7912b	-0.097444855

layer1.bias f4 [50]
0	0xbd2d8740	-0.042365313
1	0xbdc7dfa8	-0.09759456
2	0xbdcc882c	-0.0998691
3	0x3d20eda2	0.039289124
4	0x3c804dbc	0.015662067
5	0x3c2bf3d0	0.010495141
6	0xbdc80fbd	-0.09768627
7	0xbda42d82	-0.080164924
8	0xbdc4d439	-0.09610791
9	0xbd70b885	-0.05876972
10	0xbc5204e8	-0.012818553
11	0x3d45ac0a	0.048259772
12	0xbda29e90	-0.079404
13	0x3d81e0f7	0.06341737
14	0x3d037d8a	0.032102145
15	0xbd60ea64	-0.054911032
16	0xbdccdf13	-0.100034855
17	0x3dc09e6b	0.09405216
18	0xbc651958	-0.013983093
19	0x3d807767	0.06272774
20	0xbd2adbc3	-0.041713487
21	0xbdb356d4	-0.087567955
22	0xbd2f6085	-0.042816658
23	0xbd236f96	-0.03990134
24	0x3d658aa6	0.05604043
25	0x3c227378	0.009915225
26	0x3ca81908	0.020519748
27	0xbd9944ca	-0.074838236
28	0x3dc3cea7	0.095609
29	0xbbd788b0	-0.0065775737
30	0x3d2eb222	0.04265035
31	0x3d27eac6	0.04099538
32	0xbcc82000	-0.024429321
33	0x3dba5603	0.09098437
34	0xbd8cc5e4	-0.06873682
35	0x3d4d8736	0.050177775
36	0x3d963e15	0.0733606
37	0xbdc724a6	-0.09723787
38	0x3dad5687	0.084637694
39	0x3d9d76fd	0.07688711
40	0x3d79322a	0.060838856
41	0x3d980441	0.07422686
42	0xbd895386	-0.06705384
43	0x3d9f3677	0.0777406
44	0x3d8d8193	0.0690948
45	0xbd30025f	-0.04297101
46	0x3dbb42cd	0.091436006
47	0xbd83fcdb	-0.06444713
48	0x3cb158d4	0.021648802
49	0x3d1cfd1e	0.03832733

layer2.weight f4 [10, 50]
0	0xb9875e00	-0.00025819242
1	0x3ccfcfa8	0.025367573
2	0x3e055a0f	0.13022636
3	0x3d3d8828	0.046272427
4	0xbd88e81a	-0.06684895
5	0x3e0ca81b	0.13736002
6	0x3d290a74	0.041269735
7	0xba669400	-0.00087958574
8	0xbdec99e3	-0.11552789
9	0x3d3a9b18	0.045558065
10	0x3cb95810	0.022625
11	0x3dd14066	0.10217361
12	0x3b5b8300	0.003349483
13	0x3d93f908	0.07225233
14	0xbd466d9a	-0.048444368
15	0x3df9c846	0.12196402
16	0xbca9228c	-0.020646356
17	0x3d69f5c8	0.05711916
18	0x3c90e4e0	0.017687261
19	0x3dd62ac4	0.10457376
20	0x3de1cb2a	0.110250786
21	0x3d8f96de	0.070111975
22	0xbdf52c8b	-0.119713865
23	0xbca686f8	-0.02032803
24	0x3db1ccde	0.086816534
25	0x3db22fba	0.08700509
26	0x3de74b26	0.1129363
27	0x3dedbb22	0.116079584
28	0xbde2b924	-0.11070469
29	0xbd9438cf	-0.07237398
30	0x3e053d3b	0.13011639
31	0x3c4f64b0	0.012658283
32	0xbd97ade3	-0.07406213
33	0xbded4b44	-0.115866214
34	0xbdf795ed	-0.12089143
35	0x3db53b6e	0.08849226
36	0x3da84736	0.082167074
37	0x3c780800	0.015138626
38	0x3da84e04	0.08218005
39	0xbdbc4786	-0.091933295
40	0xbdec6248	-0.11542183
41	0xbcb0c9b4	-0.021580555
42	0xbddd9d48	-0.10821015
43	0xbdb5413a	-0.088503316
44	0x3cbf5630	0.023356527
45	0xbda7bf20	-0.08190751
46	0x3df0c59a	0.117564395
47	0x3e0c87db	0.137237
48	0xbd58f0ea	-0.05296413
49	0x3d56fb98	0.052486032
50	0x3ca66308	0.020310894
51	0xbd5210e4	-0.05128564
52	0x3d6f2f04	0.058394447
53	0x3d3df6d8	0.046377987
54	0x3d908968	0.07057458
55	0x3d8083ca	0.06275137
56	0xbc98f6b0	-0.018672317
57	0xbd71f83c	-0.059074625
58	0xbde892e1	-0.1135614
59	0x3c9a4548	0.018831864
60	0x3d0ae40c	0.03390889
61	0xbd66e7e2	-0.056373484
62	0xbdafe27e	-0.08588122
63	0xbdc383f0	-0.095466495
64	0x3d2ad8e4	0.04171075
65	0x3e066459	0.13124217
66	0xbda35518	-0.07975215
67	0xbbe1bd40	-0.0068890154
68	0xbcf097c4	-0.029369242
69	0x3d8fd2e0	0.07022643
70	0x3dbe25ec	0.09284577
71	0x3dc8c35c	0.09802887
72	0xbd8996d2	-0.0671822
73	0x3dc3ce1c	0.095607966
74	0x3cd24718	0.025668666
75	0xbdbeb70a	-0.09312256
76	0xbcf52bf0	-0.029928178
77	0xbca24cb8	-0.019811973
78	0xbd3b89cc	-0.04578571
79	0x3b1e4500	0.0024150014
80	0xbddafac6	-0.106923625
81	0x3d613d70	0.054990232
82	0x3ddeab9e	0.10872577
83	0x3c4c7a90	0.012480393
84	0xbca0441c	-0.019563727
85	0x3d55ce9c	0.05219899
86	0xbd52b9c8	-0.051446706
87	0x3dc55cc4	0.09636834
88	0x3dfe6996	0.12422483
89	0xbd908bef	-0.0705794
90	0xbde98fe2	-0.114043966
91	0xbd7fd2ec	-0.06245701
92	0x3ce8e778	0.028430685
93	0x3e0af1ab	0.13568752
94	0x3d6e9c58	0.05825457
95	0xbd82edea	-0.06393035
96	0x3d7f327c	0.062304005
97	0x3da2c1da	0.079471305
98	0x3d4a8950	0.049447358
99	0x3c901a90	0.017590791
100	0x3cf95c10	0.030439407
101	0x3d5cb868	0.0538868
102	0x3d914fd8	0.07095307
103	0xbd9677f9	-0.07347102
104	0x3d183568	0.037160307
105	0xbe0b6123	-0.13611273
106	0xbe0d2e90	-0.13787293
107	0x3d0bef5c	0.034163818
108	0x3bca6a80	0.0061772466
109	0xbdb3207c	-0.0874643
110	0x3d989a64	0.07451323
111	0x3dd33b78	0.10314077
112	0x3cb2a7e8	0.02180858
113	0x3d0cea4c	0.03440313
114	0xbba1a520	-0.0049330145
115	0x3ddae4cc	0.10688171
116	0x3dd60408	0.10449988
117	0x3da17668	0.07883912
118	0x3daf8f34	0.08572236
119	0x3df3c5d6	0.119029686
120	0xbe04a0db	-0.12951986
121	0xbcf8a5b8	-0.030352458
122	0xbcc34604	-0.023837097
123	0x3cc61070	0.02417776
124	0xbc589c90	-0.013220921
125	0x3d2956b4	0.041342452
126	0x3cb10778	0.021610007
127	0xbde79728	-0.11308128
128	0xbdbbdf5b	-0.09173461
129	0x3b44ca40	0.0030027777
130	0x3d8cadb2	0.06869067
131	0xbdb88de6	-0.0901144
132	0x3c567100	0.013088465
133	0x3e0756d5	0.13216718
134	0x3d75294c	0.059853837
135	0x3de6a702	0.11262323
136	0x3e0f39b5	0.13986857
137	0x3d73a230	0.059480846
138	0x3c0721e0	0.0082478225
139	0x3dedd6aa	0.116132095
140	0xbd2a9a0c	-0.041650817
141	0xbcd7b5a4	-0.02633173
142	0xbc1dd460	-0.009633154
143	0x3d2b9a9c	0.041895494
144	0xbd2f02c4	-0.042727247
145	0xbdc433c0	-0.09580183
146	0x3dcb0faa	0.09915097
147	0xbd7efd10	-0.062253058
148	0xbd8a9310	-0.06766331
149	0x3e0399e9	0.12851681
150	0x3dd525f0	0.10407627
151	0xbdf5e74e	-0.120070085
152	0xbcbecd6c	-0.023291312
153	0x3d300408	0.042972594
154	0x3ddadef8	0.10687059
155	0xbb633880	-0.0034671128
156	0xbdc8ffb8	-0.098143995
157	0x3db3cf9a	0.08779831
158	0xbd38c862	-0.045112975
159	0xbd7327c8	-0.05936411
160	0xbdeddd93	-0.116145276
161	0x3d24f790	0.040275156
162	0xbda11cc1	-0.078668125
163	0x3d2aaf50	0.041671097
164	0x3db4a978	0.08821386
165	0xbd1a1048	-0.037613183
166	0xbdd5004c	-0.10400447
167	0xbd2d115a	-0.042252876
168	0x3d749a54	0.05971749
169	0xbd55b7ee	-0.052177362
170	0x3cd8e438	0.02647601
171	0xbd8a8352	-0.067633286
172	0xbd84cd4f	-0.06484472
173	0xbe10755c	-0.14107269
174	0xbd2d7990	-0.04235226
175	0x3cbf3a80	0.023343325
176	0x3b7769c0	0.003775224
177	0xbbbb24e0	-0.005711183
178	0xbcc0e2b8	-0.023545608
179	0x3e0369ef	0.12833379
180	0x3dc6d6d6	0.097089455
181	0x3aae7e80	0.0013312846
182	0x3d8b4d22	0.06801821
183	0x3d1cb004	0.0382538
184	0xbe056486	-0.13026628
185	0xbd2ea430	-0.04263705
186	0x3de44dc2	0.111476436
187	0xbd26017a	-0.040528752
188	0xbd948ba8	-0.072532
189	0x3d82b3c8	0.06381947
190	0x3ca7d670	0.020487994
191	0x3e001c39	0.12510766
192	0x3dea1f5e	0.11431764
193	0xbd71ae42	-0.059004076
194	0x3dace582	0.08442213
195	0x3e0e7ded	0.13915224
196	0x3d08a114	0.03335674
197	0x3d5f6a2c	0.054544613
198	0xbdee9264	-0.116490155
199	0x3dac8264	0.084233075
200	0xbde39d28	-0.111139596
201	0xbdc28a0a	-0.09498985
202	0xbe0c637e	-0.13709828
203	0xbb1dc440	-0.0024073273
204	0xbd848c57	-0.0647208
205	0x3d968908	0.073503554
206	0xbcb02f20	-0.021506846
207	0x3cfc8e60	0.030829608
208	0x3c21e140	0.009880364
209	0xbd801d29	-0.06255562
210	0x3e056d03	0.13029866
211	0x3df9720a	0.12179954
212	0x3d94e6de	0.07270597
213	0xbdba58f8	-0.09099001
214	0xbd759706	-0.05995848
215	0xbd404dfa	-0.046949364
216	0x3d4c6150	0.049897492
217	0x3d24f1dc	0.040269718
218	0xbd3898ac	-0.045067474
219	0xbda57944	-0.0807977
220	0x3d358bac	0.044322655
221	0x3d903966	0.07042198
222	0x3d8af4a2	0.06784941
223	0x3dd07f04	0.10180476
224	0xbd9355cb	-0.07194098
225	0xbd38d490	-0.04512459
226	0xbc094e70	-0.008380517
227	0xbdaa23a2	-0.08307578
228	0xbc0f4010	-0.008743301
229	0x3e018787	0.12649356
230	0x3c703400	0.014660835
231	0xbda259aa	-0.07927258
232	0x3d7bce9c	0.061476335
233	0x3e0ccde1	0.13750412
234	0x3c83a3d0	0.016069323
235	0x3dc4a60a	0.09601982
236	0x3d642574	0.05569978
237	0xbdd11bd2	-0.102103844
238	0x3d92d24a	0.07169016
239	0xbdffa546	-0.12482695
240	0xbc644fd0	-0.013935044
241	0xbdec8196	-0.11548154
242	0x3dd98b38	0.10622257
243	0xbd82d412	-0.063881055
244	0x3d834346	0.06409316
245	0xbc844910	-0.01614812
246	0x3dd176a6	0.102277085
247	0x3e0907b7	0.13381849
248	0x3d2fb8c8	0.04290083
249	0xbca4ef80	-0.020133734
250	0xbcde1e64	-0.0271141
251	0x3d23adbc	0.039960608
252	0x3d56e3fc	0.052463517
253	0xbd05db68	-0.032679945
254	0x3d95fdd6	0.07323806
255	0x3ded92d2	0.116002694

layer2.bias f4 [10]
0	0xbdd1c398	-0.10242385
1	0x3d9d8dec	0.07693085
2	0xbdf2bcbc	-0.118524045
3	0x3d022edc	0.03178297
4	0xbd573546	-0.05254104
5	0xbd392f8e	-0.045211367
6	0xbcd07dd8	-0.025450632
7	0xbdd336c0	-0.10313177
8	0x3de24992	0.11049189
9	0x3d21df0c	0.039519355

output.weight f4 [1, 10]
0	0xbccabe20	-0.024748862
1	0xbc0b3fc0	-0.008499086
2	0x3dd83238	0.105564535
3	0x3e50d37e	0.20393178
4	0x3e42c9d2	0.19022301
5	0xbe8db402	-0.27676398
6	0xbdd58a32	-0.10426749
7	0xbe927f80	-0.286129
8	0xbd30c180	-0.043153286
9	0xbd100ab0	-0.035166442
