models/f_ud.pt (torch, 24618 bytes, 5 tensors)

layer1.weight f4 [50, 99]
-0.0014461279 -0.017057672 0.026603974 0.00015065819 0.07055829 0.007186815 -0.057559103 0.055019505
0.09154444 0.018542565 -0.06430103 0.0050498545 -0.03504739 -0.036173657 0.033618964 -0.08349654
0.07842135 -0.08921192 -0.08382923 0.04021535 -0.085754454 -0.028520599 0.062454127 -0.03211057
-0.08112696 0.046032004 0.04904341 0.052876838 0.044725277 -0.036513045 -0.08671956 -0.06005607
-0.03848919 -0.090252526 -0.02998174 -0.05755999 0.08558679 0.08443492 0.04329411 0.027702965
-0.06684491 0.0024113283 0.03311751 -0.010264382 -0.026320338 -0.008108154 -0.032243215 -0.088112675
0.003567554 0.04615108 -0.011601418 -0.014426626 -0.06662229 -0.056034405 0.031047367 -0.045217264
-0.025756352 -0.026447102 0.092710234 0.002199173 0.07474715 -0.078134075 0.09029711 -0.052911323
-0.0788922 -0.011993118 -0.019104578 -0.04902404 -0.001582019 -0.07635276 0.07777614 0.049034722
-0.023470163 -0.08264638 -0.05696885 -0.025296234 -0.05453447 0.044087864 -0.02133552 0.025242664
-0.06457873 0.068025164 -0.056084603 -0.031268634 -0.09235568 -0.016125366 0.004368305 -0.009907432
-0.055293716 -0.07821472 -0.08409225 0.039488636 -0.0012462512 0.09410501 0.06850452 0.09255975
0.019463375 -0.03398961 0.055160858 0.022745986 -0.017617868 -0.0011157853 -0.01598861 0.06854665
0.068948895 6.7775654e-05 0.012772912 -0.032303214 0.08701935 0.0830264 0.078670256 -0.07510883
0.14604858 0.043633107 0.08703711 0.052303113 0.10578483 0.11802341 0.10646786 -0.01591384
0.005461318 0.12884226 0.097016685 -0.03576464 -0.039374568 0.08939942 0.1209633 0.08590853
-0.057802137 0.09428255 0.022418104 0.11214704 -0.0600833 0.12137775 0.0939717 -0.029926404
-0.008627957 -0.0034253856 0.11103252 -0.052099857 -0.05221427 0.025703657 0.05437521 0.000977349
0.014265246 0.07250943 -0.011585929 -0.0072193462 -0.04652993 0.09298488 0.0512849 0.08602105
0.0007778737 0.08322709 0.006288261 -0.0788998 -0.069820754 -0.0012024038 -0.049617324 0.0909998
0.036204424 0.048421714 -0.037595466 0.0059540393 0.050953563 0.024312986 -0.016567226 -0.03531828
0.0785712 -0.011574714 0.07670255 -0.033268988 -0.010409288 0.057421107 -0.062345464 -0.014663621
-0.081591636 -0.031024206 0.15171543 0.00478163 0.06442619 0.06576611 0.006532534 0.1113395
0.0011551437 -0.08101743 -0.0045961104 -0.050618853 -0.02673859 0.049375795 -0.071427755 -0.054835543
0.12195307 -0.0444091 0.046036396 -0.025536621 -0.05805459 0.014671426 -0.062549 0.14001863
-0.035493318 0.08726134 0.14780445 -0.07185052 0.065036446 -0.048779823 -0.04449115 0.06186361
0.13350083 0.06780328 0.10388034 0.07575215 0.05183774 -0.07307754 0.03482959 0.077283405
-0.07103159 0.09910882 -0.067880444 0.08195541 0.124575906 -0.011081808 -0.09889754 -0.034168843
0.010242718 0.08200407 0.08294569 0.050556716 -0.09847873 -0.0069123153 -0.00016297317 0.08307374
0.014142915 -0.119231075 -0.06606904 0.08576107 -0.12353037 -0.03947192 -0.012207909 0.013926615
-0.0058558597 -0.020964669 -0.04902576 -0.03964885 0.09516629 -0.03510359 0.07120728 0.034553256
0.023871817 -0.016654067 -0.051044952 -0.113174856 -0.08050425 0.10877385 0.013568446 -4.6902487e-06
00000000: 008c bdba 88bc 8bbc 94f0 d93c 00fa 1d39
00000010: dd80 903d 607f eb3b 18c3 6bbd 225c 613d
00000020: a77b bb3d 94e6 973c 42b0 83bd 4079 a53b
00000030: da8d 0fbd d42a 14bd 0ab4 093d 3c00 abbd
00000040: 5f9b a03d bdb4 b6bd a9ae abbd dab8 243d
00000050: 08a0 afbd 08a4 e9bc e6cf 7f3d 6086 03bd
00000060: e425 a6bd 0e8c 3c3d bee1 483d 6295 583d
00000070: da31 373d b48e 15bd 069a b1bd 5bfd 75bd
00000080: d7a6 1dbd 51d6 b8bd 449c f5bc 06c4 6bbd
00000090: 2148 af3d 37ec ac3d 2a55 313d 54f1 e23c
000000a0: fce5 88bd 6007 1e3b 3aa6 073d f02b 28bc
000000b0: c09d d7bc 10d8 04bc 7611 04bd 6b74 b4bd
000000c0: a0cd 693b ea08 3d3d e013 3ebc a85d 6cbc
000000d0: 4471 88bd 5584 65bd 0c57 fe3c bd35 39bd
000000e0: fcfe d2bc 98a7 d8bc ddde bd3d 0020 103b
000000f0: 0915 993d c204 a0bd b1ed b83d 8bb9 58bd
00000100: 3c92 a1bd c87e 44bc 3481 9cbc 6fcd 48bd
00000110: c05b cfba d65e 9cbd 1949 9f3d a2d8 483d
00000120: 8044 c0bc 8142 a9bd 2b58 69bd 0c3a cfbc
00000130: 895f 5fbd 7a95 343d d4c7 aebc b4c9 ce3c
00000140: da41 84bd c750 8b3d f8b8 65bd 8a13 00bd
00000150: fa24 bdbd 5819 84bc 0024 8f3b c852 22bc
00000160: aa7b 62bd 0a2f a0bd 8f38 acbd d6be 213d
00000170: 4059 a3ba 21ba c03d 194c 8c3d f78f bd3d
00000180: a871 9f3c b038 0bbd 5af0 613d ca55 ba3c
00000190: 5953 90bc 8b3f 92ba 8cfa 82bc 3062 8c3d
000001a0: 1435 8d3d c722 8e38 7a45 513c 6050 04bd
000001b0: 3337 b23d bf09 aa3d df1d a13d a9d2 99bd
000001c0: c28d 153e a1b8 323d 8340 b23d ca3b 563d
000001d0: b8a5 d83d 42b6 f13d d20b da3d be5d 82bc
000001e0: dbf4 b23b 3aef 033e afb0 c63d f17d 12bd
000001f0: 3a47 21bd 0b17 b73d 9bbb f73d d0f0 af3d
00000200: efc1 6cbd 3617 c13d 2ca6 b73c 59ad e53d
00000210: e819 76bd e694 f83d 3c74 c03d 3828 f5bc
00000220: 465c 0dbc 6f7c 60bb 0565 e33d a966 55bd
00000230: a1de 55bd 7a90 d23c 8ab8 5e3d 641a 803a
00000240: c7b8 693c d37f 943d e9d2 3dbc 4490 ecbb
00000250: 2b96 3ebd db6e be3d 1e10 523d ce2b b03d
00000260: 38ea 4b3a f772 aa3d c20d ce3b 3896 a1bd
00000270: 2ffe 8ebd fa99 9dba 893b 4bbd 1a5e ba3d
00000280: 174b 143d d955 463d b4fd 19bd 1a1a c33b
00000290: afb4 503d 072c c73c feb7 87bc e7a9 10bd
000002a0: f0e9 a03d dfa3 3dbc 3a16 9d3d 1045 08bd
000002b0: b88b 2abc 6532 6b3d f55d 7fbd af3f 70bc
000002c0: 8419 a7bd 7a26 febc 4a5b 1b3e 38af 9c3b
000002d0: e1f1 833d 62b0 863d de0e d63b f705 e43d
000002e0: 3168 973a 77ec a5bd f89a 96bb b755 4fbd
000002f0: e30a dbbc 463e 4a3d b748 92bd 3c9b 60bd
00000300: 88c2 f93d 51e6 35bd a990 3c3d 2d32 d1bc
00000310: a6ca 6dbd 6c60 703c b119 80bd 0b61 0f3e
00000320: 7161 11bd 13b6 b23d 0d5a 173e 5e26 93bd
00000330: d431 853d 5acd 47bd 5a3c 36bd b264 7d3d
00000340: 71b4 083e 72dc 8a3d 37bf d43d f123 9b3d
00000350: cf53 543d ada9 95bd 79a9 0e3d c346 9e3d
00000360: 0379 91bd 91f9 ca3d e704 8bbd 3dd8 a73d
00000370: a721 ff3d 7990 35bc cb8a cabd a1f4 0bbd
00000380: 13d1 273c c0f1 a73d 6edf a93d 8f14 4f3d
00000390: 37af c9bd b480 e2bb c7e3 2ab9 9122 aa3d
000003a0: afb7 673c 6c2f f4bd 344f 87bd 80a3 af3d
000003b0: 7efd fcbd 4fad 21bd ae03 48bc 752c 643c
000003c0: 83e2 bfbb 19be abbc 3ccf 48bd d566 22bd
000003d0: 8be6 c23d c8c8 0fbd 1fd5 913d b787 0d3d
000003e0: d48e c33c 1c6e 88bc 8314 51bd 38c8 e7bd
000003f0: 6adf a4bd d3c4 de3d 304e 5e3c ee60 9db6

layer1.bias f4 [50]
-0.05177418 0.09984749 -0.018051125 0.08741708 -0.015097434 0.091370285 -0.05759415 -0.06374966
-0.09387289 -0.036169376 0.021112433 0.031723887 0.008277625 0.11561708 0.09987828 0.057459358
-0.06227965 -0.10584846 -0.031191524 0.08683909 -0.05059387 -0.045593947 -0.0019294784 -0.09254667
-0.031762365 0.04827387 0.047769006 0.08179502 -0.06228849 -0.059621766 0.09648243 -0.061536275
0.057753496 0.028765315 0.082554266 0.02075722 -0.04667888 0.044192962 -0.03789349 0.006236898
0.08375693 0.102185115 -0.102299646 0.048354212 -0.024418801 -0.07503798 -0.016182847 -0.0064969286
-0.055287585 0.016236683
00000000: 2a11 54bd d77c cc3d f4df 93bc ba07 b33d
00000010: 3a5b 77bc 5820 bb3d d8e7 6bbd 2f8f 82bd
00000020: 6e40 c0bd 5726 14bd fbf3 ac3c e8f0 013d
00000030: e09e 073c a6c8 ec3d fc8c cc3d 815a 6b3d
00000040: f218 7fbd 14c7 d8bd 5e85 ffbc b1d8 b13d
00000050: 853b 4fbd b8c0 3abd 8de6 fcba 1c89 bdbd
00000060: 4119 02bd d2ba 453d 6fa9 433d 2684 a73d
00000070: 3722 7fbd f435 74bd 9598 c53d 760d 7cbd
00000080: ee8e 6c3d 3da5 eb3c 3612 a93d 0c0b aa3c
00000090: 5a32 3fbd ae03 353d 3436 1bbd e45e cc3b
000000a0: c188 ab3d 6e46 d13d 7a82 d1bd 110f 463d
000000b0: f009 c8bc 83ad 99bd e491 84bc 30e4 d4bb
000000c0: 3c75 62bd cb02 853c

layer2.weight f4 [10, 50]
0.11071657 0.0843966 -0.14256456 0.16774774 0.037828635 0.0583169 -0.08471891 0.00026258826
0.004165113 0.027528182 -0.05329698 0.1418352 -0.091653615 -0.0021329904 0.009453178 -0.033047616
0.13392632 0.012406533 0.13169391 -0.057050653 -0.06415628 -0.112945944 -0.14222088 -0.03478737
0.10760244 0.01677247 -0.06943958 -0.013970965 0.04830122 0.10129976 -0.06717228 -0.062328987
0.06300713 0.0068491274 0.16504337 0.00047355128 -0.009353931 -0.035771564 0.11197918 -0.017893996
-0.09117839 -0.0870987 -0.070504755 0.011019647 -0.11573407 -0.0811072 0.08585377 0.15511712
-0.002486024 0.07496102 -0.061386548 0.102046415 -0.0063847806 -0.058346707 -0.09846365 0.087226376
-0.09627232 0.021405548 -0.044084728 0.036152307 0.07265881 0.00921789 0.013211037 -0.026782166
-0.008381744 -0.0049775485 0.014361519 0.12803933 0.010544378 0.060061306 0.122084215 0.1286559
0.13843916 0.07503916 -0.009861516 0.040058468 0.15774988 -0.04105248 0.006205723 0.14718732
0.12781551 0.0465824 0.11861616 0.032749493 0.013588835 -0.17572789 -0.07082257 0.12700342
0.03148136 0.0352528 0.10478746 -0.14461625 0.04593742 -0.028685443 0.12200036 -0.13336088
-0.08211176 -0.042167813 -0.093394496 -0.09693776 0.084211335 0.08927688 0.077348255 0.021950418
-0.12048343 -0.021204984 0.0958381 0.03677887 -0.06463617 0.101965904 -0.020330288 -0.10941503
0.13627192 -0.19890681 0.018078946 -0.028854512 0.0148495585 0.09642889 0.027514793 -0.018809684
0.018530007 0.1384363 0.11156373 -0.035397604 0.027170677 -0.06311101 -0.10041896 0.03628014
-0.1428682 0.12738697 -0.0993241 0.06703146 -0.027188616 -0.070853196 0.08867836 -0.11475774
0.049060084 -0.009562388 0.1350941 0.15881371 0.13431585 -0.16293968 -0.10423399 0.024126353
-0.013998355 -0.13115132 -0.0811059 -0.16783883 0.0469022 -0.02621694 -0.020567276 -0.05609578
-0.029889904 -0.05552179 0.025647104 -0.027456323 -0.03173306 -0.047311686 0.010995463 0.03022113
-0.080042616 -0.04128003 0.016353348 0.0067388043 -0.017462786 0.06893825 -0.02945519 0.008490231
0.13049687 -0.026351154 -0.0680641 0.110663205 -0.15947017 -0.0043136775 -0.07844194 0.113132924
0.07091895 0.03220062 0.06492797 -0.15615813 0.10464377 -0.12839034 0.08588527 -0.048407193
-0.07489088 0.04859709 -0.034761906 -0.12609605 0.072921254 -0.016822133 0.024175929 0.08313889
0.10231004 0.18720111 -0.11802898 0.008704171 -0.09614666 -0.0826948 0.020870393 0.06254616
0.08269143 -0.018431244 0.08407313 -0.13075627 -0.08846449 0.0008072832 -0.13236262 0.0059709824
0.06177014 0.016715702 0.09150716 -0.003017884 0.12627462 -0.1450917 0.12078666 0.10732054
-0.02238677 0.104605 0.03787919 -0.018416181 0.11901975 0.09236915 -0.08027343 0.11215924
-0.15316209 0.09611771 -0.048861343 0.11774017 -0.014535515 -0.07255578 0.08805295 0.10789251
0.11403004 0.14172056 -0.092017636 -0.16739172 -0.1019491 0.13275538 0.1539433 0.12749477
0.09017021 -0.1346699 -0.020750815 -0.14733747 0.06766793 -0.15367511 -0.103941485 -0.029955735
-0.06475131 0.17891264 -0.12772743 -0.028527169 -0.06545023 0.07580265 0.037452213 -0.038546134
00000000: 5ebf e23d 20d8 ac3d 72fc 11be 10c6 2b3e
00000010: 33f2 1a3d b4dd 6e3d 1c81 adbd 00ac 8939
00000020: 807b 883b c882 e13c ef4d 5abd 3f3d 113e
00000030: e4b4 bbbd a4c9 0bbb 81e1 1a3c f05c 07bd
00000040: fb23 093e c544 4b3c c5da 063e f2ad 69bd
00000050: 5e64 83bd 3450 e7bd 5aa2 11be 347d 0ebd
00000060: ab5e dc3d 6b66 893c 5736 8ebd 79e6 64bc
00000070: 80d7 453d 4076 cf3d 9f91 89bd ae4c 7fbd
00000080: e209 813d a56e e03b 2101 293e fa46 f839
00000090: 3b41 19bc 3485 12bd 5755 e53d 6e96 92bc
000000a0: bcbb babd ce60 b2bd cc64 90bd c08b 343c
000000b0: fc05 edbd 881b a6bd 1ad4 af3d 06d7 1e3e
000000c0: 90ec 22bb 2a85 993d 7670 7bbd b6fd d03d
000000d0: 6c37 d1bb f5fc 6ebd 4fa7 c9bd bea3 b23d
000000e0: 6c2a c5bd b05a af3c 3092 34bd 7114 143d
000000f0: 24ce 943d a206 173c 1b73 583c 4666 dbbc
00000100: 9553 09bc b41a a3bb 944c 6b3c be1c 033e
00000110: 54c2 2c3c d802 763d 4a07 fa3d 5fbe 033e
00000120: ffc2 0d3e 22ae 993d 3292 21bc 5914 243d
00000130: 2f89 213e a526 28bd 6159 cb3b 46b8 163e
00000140: 12e2 023e 30cd 3e3d 07ed f23d 5524 063d
00000150: b4a3 5e3c 03f2 33be 6c0b 91bd 2f0d 023e
00000160: 99f2 003d 3d65 103d cf9a d63d 4816 14be
00000170: e028 3c3d bcfd eabc 53db f93d c18f 08be
00000180: 362a a8bd 28b8 2cbd 9d45 bfbd 4e87 c6bd
00000190: fe76 ac3d ccd6 b63d c368 9e3d 5dd1 b33c
000001a0: 04c0 f6bd 13b6 adbc c446 c43d 71a5 163d
000001b0: f85f 84bd 80d3 d03d b48b a6bc fd14 e0bd
000001c0: de8a 0b3e 3aae 4bbe 4c1a 943c 4c60 ecbc
000001d0: 904b 733c 837c c53d b466 e13c c416 9abc
000001e0: 3ecc 973c 3fc2 0d3e 867b e43d 14fd 10bd
000001f0: 0a95 de3c 5840 81bd 75a8 cdbd 7c9a 143d
00000200: 0b4c 12be bb71 023e 6f6a cbbd ca47 893d
00000210: a9ba debc 7b1b 91bd 009d b53d 1b06 ebbd
00000220: 3af3 483d 90ab 1cbc 1c56 0a3e 10a0 223e
00000230: 188a 093e a9d9 26be a178 d5bd a1a4 c53c
00000240: 5b59 65bc 884c 06be da1a a6bd f1dd 2bbe
00000250: 851c 403d e8c4 d6bc b47c a8bc b0c4 65bd
00000260: acdb f4bc d16a 63bd e019 d23c 15ec e0bc
00000270: 86fa 01bd e6c9 41bd 5026 343c 4e92 f73c
00000280: 62ed a3bd 4015 29bd 75f7 853c 30d1 dc3b
00000290: 1e0e 8fbc 7f2f 8d3d 034c f1bc 9c1a 0b3c
000002a0: f9a0 053e 60de d7bc 3165 8bbd 64a3 e23d
000002b0: 264c 23be c059 8dbb 2ba6 a0bd 3cb2 e73d
000002c0: f43d 913d cce4 033d f5f8 843d ebe7 1fbe
000002d0: 794f d63d c278 03be 9ee4 af3d 9f46 46bd
000002e0: 6460 99bd be0d 473d 8062 0ebd 531f 01be
000002f0: bd57 953d 92ce 89bc 990c c63c b944 aa3d
00000300: ed87 d13d a6b1 3f3e 2eb9 f1bd f09b 0e3c
00000310: 8ae8 c4bd e45b a9bd 63f8 aa3c 3318 803d
00000320: 205a a93d 1ffd 96bc 882e ac3d f9e4 05be
00000330: df2c b5bd dc9f 533a 118a 07be 3ba8 c33b
00000340: b002 7d3d 5eef 883c 1b68 bb3d b1c7 45bb
00000350: 224e 013e eb92 14be ff5e f73d dfca db3d
00000360: 7664 b7bc 253b d63d 3627 1b3d 88dd 96bc
00000370: a0c0 f33d 092c bd3d 6566 a4bd beb3 e53d
00000380: 86d6 1cbe 5dd9 c43d d522 48bd c221 f13d
00000390: 5e26 6ebc 2098 94bd 1b55 b43d c0f6 dc3d
000003a0: 9588 e93d 321f 113e be73 bcbd bc68 2bbe
000003b0: b1ca d0bd 07f1 073e 50a3 1d3e fd8d 023e
000003c0: 29ab b83d e8e6 09be 9dfd a9bc a2df 16be
000003d0: 7c95 8a3d 025d 1dbe 46df d4bd bb65 f5bc
000003e0: 569c 84bd e034 373e fbca 02be cfb1 e9bc
000003f0: c50a 86bd 6b3e 9b3d 7e67 193d 8de2 1dbd

layer2.bias f4 [10]
0.0179144 0.09131937 0.083664775 0.076283984 0.013618607 0.06404054 -0.1002715 -0.060501058
0.05380532 -0.014492173
00000000: 38c1 923c a605 bb3d 7058 ab3d c73a 9c3d
00000010: 9420 5f3c b027 833d 255b cdbd f5cf 77bd
00000020: f862 5c3d 9470 6dbc

output.weight f4 [1, 10]
0.21146677 -0.3319234 -0.057552163 0.041521996 -0.32747743 -0.27435416 -0.23270594 -0.18840776
-0.15355563 -0.07414207
00000000: bf8a 583e ddf1 a9be d1bb 6bbd f812 2a3d
00000010: 1fab a7be 2678 8cbe 774a 6ebe f7ed 40be
00000020: b03d 1dbe ccd7 97bd
