models/s_k.pt (torch, 24608 bytes, 5 tensors)

layer1.weight f4 [50, 99]
00000000: 1020 a7bd a465 73bd f566 873d 833d af3d
00000010: 6493 d13c b209 07bd 9250 243d 679a 4bbd
00000020: f276 c6bd 1a01 b1bd 79f5 c03d 3df8 ca3d
00000030: b5f4 b33d 8817 52bd 7872 8bbc 47bd 953d
00000040: 941a 9cbd 832b ba3d 069e 76bd 805b c4bd
00000050: fb34 43bd a848 c7bd ef82 71bd 385b 2cbc
00000060: d047 2fbc 8059 b4bb 80c8 41bc 1cf4 87bd
00000070: 022e 5a3d b627 0a3d 00a7 93ba 5092 693c
00000080: a071 733b 6a80 9cbd 1a13 463d d877 8ebd
00000090: 701a 8c3c be3e 103d ace4 c9bc 0337 ba3d
000000a0: 8095 66bb 8043 c1bb 70d6 02bc 36b0 57bd
000000b0: 6083 3abd 84f5 b1bc cf88 9f3d 7228 9ebd
000000c0: c212 94bd 6eb0 643d fd25 7ebd 5692 b1bd
000000d0: 14f1 dc3c 401e 72bd c827 723c 604b 7e3b
000000e0: 105e a33b e0f8 c43b 401f 043c 631e b93d
000000f0: 20d8 153b ee84 8fbd 64b8 e13c c5a5 97bd
00000100: b206 403d 6ac0 2f3d f045 8d3c a621 4b3d
00000110: 9845 5fbd c0c7 a7bc 880b 8b3c 4f91 843d
00000120: 84d2 97bd 1059 bfbb 6c5c aebd 30c6 d2bc
00000130: 005b e7ba b48d e23c 00ad ab3b e05a 1abb
00000140: 0a7d 553d b99e b7bd 88ee 883c e38b 58bd
00000150: 383e 703c 3cf4 fb3c d05d a13c 025b 84bd
00000160: c2cf a7bd 88f0 52bc 34aa ee3c 7c8b a8bd
00000170: a09b 593c 90ce 81bd dda9 b6bd 8a79 6f3d
00000180: a055 91bd 7890 b7bd 264d 4fbd 4dae 6a3d
00000190: 8665 a63d c122 09bc 97a5 a93d 8b16 93bb
000001a0: 832e bf3c 8f73 54bd 78c7 65bc 606d 963b
000001b0: 0cec 12bd de29 91bc 0a65 d53d 7c37 afbc
000001c0: 99ec 083c ded8 333d 4a12 813d c578 9bbd
000001d0: a528 71bb cc2f e63d f654 32bd 28cd 393d
000001e0: 7f7f 203d 1854 3bbd 782c b13c b965 cd3d
000001f0: b2da f4ba 1427 bcbd 7a66 61bc afb4 d53d
00000200: 1f32 36bc 9389 d83d 3241 4c3d a525 c23d
00000210: 6e0e a4bb ebfe b13c 4404 023c faa8 8e3d
00000220: 1b7c bf3d f6cc 073d b194 0e3d a8ee 88ba
00000230: b24a bfbd 2167 8f3d 7768 db3d fec0 c6bd
00000240: 50fd 4bbd 9c4b 9d3d b3ec 9f3d 380e 1fbb
00000250: 6613 f5bb 01ba 303d 518d 913d 7f42 e13c
00000260: bd77 c73c f076 d83b 3176 a8bd b74c 42bc
00000270: f5dd b9bc 02ac c43d d9a7 43bd dab6 9bbc
00000280: 7dbb 223b 23b3 b23d fc97 b0bd a138 9fbd
00000290: 9282 5dbd 7042 85bd 4581 59bd ccac 1abd
000002a0: c87c debd de47 92bd 2e70 9fbd 55a5 a9bd
000002b0: c7fd 093d 4f09 9a3d 80bf ae3d d485 823d
000002c0: 62f6 903d f788 a1bd 0ae7 a7bd 9dd5 c83d
000002d0: eeeb 74bd f97e a8bd 5c9c db3d 4ffa a9bc
000002e0: 89a1 bb3d f29b 60bc ee15 acbc 7b7c e8bd
000002f0: 479d 1f3d aad2 c2bd 57a7 363d 9285 a13d
00000300: 7dde 1dbd b23c 963d 4c0b fc3c 6fa9 803d
00000310: 8017 e4bc f5ee 723d 28ed a7bd 80fb 943c
00000320: 36f9 2d3d 2648 4b3d ecf5 b33c 884e 57bc
00000330: 95f7 adbd 80d4 1eba 2500 c73d 6ca2 eebc
00000340: f23f 563d 9ccb 9abd 12bf 49bd e06d 3dbc
00000350: 2ff6 93bd 885c 8ebd cced 2ebd 8242 43bd
00000360: 58cc 73bc e0bf b3bb 0879 d9bc 76d3 72bd
00000370: b8c9 a63c 28bd 02bc ee07 71bd 9c06 abbc
00000380: e206 423d 6636 3dbd 134f 3abd 00d2 d83b
00000390: 1c97 3abd 6228 343d 47b5 873d 3a42 b6bd
000003a0: f033 29bc f897 bb3c d213 753d 0170 b2bd
000003b0: e995 9e3d 8af8 423d 8663 66bd 09a2 b4bd
000003c0: 985c cabc 541d a9bc bc3a 49bd 606d b13b
000003d0: 2788 823d 0cae ae3c df83 863d 6aa8 cabd
000003e0: b2b5 76bd d5a0 bfbd 9cae d83c deaa 27bd
000003f0: f45e 80bc 8885 8ebd 43c6 ca3d a27c 343d
-0.08160412 -0.059423104 0.06611434 0.08556654 0.025582977 -0.03296823 0.0401159 -0.049707796
-0.09690656 -0.08642788 0.0942182 0.09910629 0.087869085 -0.051291972 -0.017022356 0.073114924
-0.07622257 0.090903305 -0.060209297 -0.09587765 -0.047657948 -0.09730655 -0.05896276 -0.010519795
-0.010698274 -0.0055038333 -0.011827588 -0.06638357 0.053266533 0.033729278 -0.001126498 0.014256075
0.0037146583 -0.076416805 0.04835806 -0.06956452 0.01710245 0.035216086 -0.024645172 0.09092524
-0.0035184324 -0.005897939 -0.007985696 -0.052658282 -0.045535445 -0.021723516 0.07789766 -0.07722558
-0.0723014 0.05583232 -0.062047947 -0.086704895 0.026970424 -0.05911088 0.014779992 0.0038802251
0.0049855784 0.0060111135 0.008064091 0.09038999 0.0022864416 -0.07007776 0.027553745 -0.07404665
0.046881385 0.04290811 0.017245263 0.049592637 -0.05450973 -0.02048099 0.016973272 0.06473028
-0.074131995 -0.0058394745 -0.08513722 -0.025729269 -0.0017651021 0.02765546 0.005239129 -0.00235527
0.0521212 -0.08965821 0.016715303 -0.05286778 0.014663272 0.030756108 0.019698054 -0.06462671
-0.081939235 -0.01287473 0.029133894 -0.082297295 0.013281733 -0.06338227 -0.089191176 0.058465518
-0.0709641 -0.08963102 -0.050610684 0.057295132 0.08124833 -0.008370102 0.08283537 -0.0044887713
0.023337608 -0.051868018 -0.014024608 0.0045906752 -0.035869643 -0.01772016 0.10419662 -0.021388762
0.0083571905 0.043907993 0.063023165 -0.07591394 -0.0036797908 0.11239585 -0.043538056 0.045361668
0.03918409 -0.045734495 0.02162765 0.10029168 -0.0018680899 -0.09187141 -0.0137573425 0.10434853
-0.011120348 0.10573115 0.049866863 0.094798364 -0.005006603 0.021728 0.007935587 0.069658235
0.09349843 0.03315445 0.034809772 -0.0010447102 -0.09340419 0.07002092 0.107132845 -0.09704779
-0.049802125 0.07680437 0.07808819 -0.002426995 -0.007479119 0.043146137 0.07107032 0.027497528
0.024349088 0.0066059753 -0.08225668 -0.011859111 -0.022688845 0.096031204 -0.047767494 -0.019008089
0.002483099 0.08725574 -0.08622739 -0.07774473 -0.0540796 -0.065068126 -0.053101797 -0.03776245
-0.10863644 -0.07142614 -0.077850685 -0.08283488 0.033689287 0.07521307 0.085326195 0.06373182
0.07078244 -0.07887452 -0.08198364 0.098063685 -0.059795313 -0.08227343 0.107231826 -0.02074924
0.0916167 -0.013709055 -0.02100655 -0.11351868 0.03896835 -0.09512837 0.04459318 0.07886805
-0.03854226 0.073357955 0.030767106 0.06282317 -0.027843237 0.05930992 -0.08199531 0.01818633
0.042473994 0.049629353 0.02196785 -0.013141282 -0.08494488 -0.00060588866 0.097168244 -0.029130183
0.052307077 -0.07558367 -0.049254484 -0.011561841 -0.0722469 -0.06951243 -0.04270725 -0.04767085
-0.014880262 -0.0054855198 -0.02654697 -0.059283696 0.020359859 -0.007979669 -0.058845453 -0.020877175
0.047369845 -0.046194457 -0.045485567 0.006616831 -0.045554265 0.043983825 0.06626373 -0.088993505
-0.010327324 0.022899613 0.059833355 -0.08712769 0.07743437 0.047600307 -0.056247257 -0.08819968
-0.024702355 -0.020643868 -0.04912828 0.00541465 0.06373625 0.021323226 0.06568121 -0.09895404
-0.060231872 -0.09356848 0.026450448 -0.040934436 -0.015670277 -0.06959063 0.09901097 0.04406417

layer1.bias f4 [50]
00000000: e4db 00bd f08c 643d 1b8a 78bd a3e2 763d
00000010: 1af2 a5bd e7d3 16bd e456 babd 580c f6bc
00000020: 0e96 d33d e311 af3d f381 baba e875 28bd
00000030: d025 adbb ea4a 06bd e702 43bd a748 0ebd
00000040: 1ca6 a9bd 523a 0bbc 2817 57bc 76d3 0a3d
00000050: 9692 1c3d 486f 863c a6a8 c1bd a7b0 df3d
00000060: a3ca 223c d0b8 a2bd e692 523c 6448 babc
00000070: 01d2 0abd 1ae1 c13d 5704 7c3b 155a cb3d
00000080: 1bc0 5e3d 757c a5bd 3f5a 33bd 336f c13d
00000090: 0249 1a3d 3b69 82bc 8c65 83bd b5eb c03d
000000a0: ae32 2d3d 0779 e43c 71e3 12bd d59c 36bd
000000b0: 7f8d 913c 1d39 0fbd 2536 203d c8bd 28bc
000000c0: 92f3 2bbd ee50 833c
-0.031459704 0.05579847 -0.060678583 0.06027473 -0.08102818 -0.03682318 -0.09098604 -0.030035183
0.10331355 0.085483335 -0.0014229402 -0.04112807 -0.0052840486 -0.032786287 -0.04761019 -0.034737255
-0.08283636 -0.008497791 -0.0131280795 0.03389307 0.038225733 0.016410485 -0.09455995 0.10922366
0.009936008 -0.079454064 0.012852406 -0.022739597 -0.03389168 0.09466763 0.0038454735 0.09929291
0.054382425 -0.08080379 -0.043787237 0.09445038 0.037667282 -0.015919318 -0.06415853 0.094199575
0.04228466 0.027889742 -0.035861436 -0.04458316 0.017767666 -0.034966577 0.039114136 -0.010299154
-0.041980334 0.016029801

layer2.weight f4 [10, 50]
00000000: c013 b1bb 3a17 d63d 45ab 81bd 80ba 92bd
00000010: e689 b5bd 2dc5 9bbd 14a6 013d 5565 a43d
00000020: ea2e d0bd 3860 213d a231 973c 364a b03d
00000030: fd56 033e 806b 563d 047d 283d b464 073e
00000040: 0e59 d6bd 50d0 0a3e 954d dabd e7dd 183e
00000050: 0cfc c1bd be4e 6fbd 06e7 60bd 2e00 183e
00000060: ae4e 29bb f7c6 d63b 35a3 ac3d dfd2 e53d
00000070: 147f f73c d8b5 133e 728a 3f3d a20c af3d
00000080: 95db 1f3e 4dd7 dcbd 28e3 b23d 8bbd 1bbe
00000090: b91a 81bd f5fc b63d 0450 043d 66c6 a1bd
000000a0: b516 6abd 91ae 583d 46ff 853c 70e7 743d
000000b0: 67f3 dfbd 93ac 6f3d 2cb3 a03c 5af7 84bd
000000c0: 8ef0 103e d4b3 1dbe 40c4 d7bd b107 8abd
000000d0: 005b a8bb adfc 80bd accf 78bd b83a 9ebc
000000e0: 0e2c e9bd 5371 0d3e 587a fc3c 65f7 043e
000000f0: a022 47bc 54ea 41bd 8c9a 333d 06d9 bcbd
00000100: 54d1 fabd c905 a8bd 3897 b4bd 3cfb a1bd
00000110: 8c4c 993d 60b0 c93b f05b 673d 2864 a9bd
00000120: 00c0 db37 405f 673b 898e 03be 1480 f7bd
00000130: 505f 3ebc 0230 db3d 2431 ce3d 809b 76bc
00000140: 4c11 10bd 3844 dabc e634 cebd b094 953c
00000150: cae1 fe3d 0c6a 693d 6847 933d 752d 083e
00000160: 1c01 02be bed6 e23d 1ada df3d bfb3 f9bd
00000170: 8003 a6ba 66ea c23d 289b cdbd 38a8 92bc
00000180: 9aeb f33d 2cb4 6cbd 10c1 77bc 3008 a13c
00000190: e8c5 dabd 9fd9 b33d 6b4a 9cbd 1aaa e63d
000001a0: 3e72 ff3d ed1e 3a3d 5758 00be 9c19 94bd
000001b0: 9241 8b3c 453c ad3d a979 003e e2ab 233e
000001c0: 0c93 493d 40bf 02be e4ae f3bd 540a 043e
000001d0: be37 e8bd 260a 5fbc 7206 b5bd 92b8 dd3b
000001e0: c677 a93d 6096 703c 20ba 3c3d c3c8 303e
000001f0: 03ad b0bd 212c 343e 9073 733d ce78 b9bc
00000200: 7447 833d 31aa 283e acc3 243e 29b3 373a
00000210: 3e58 9b3d 17ea 06bc 509a 7f3c 0c80 16be
00000220: cdd0 8abd 04e9 3b3d 0810 b03d e0d1 c5bd
00000230: 2147 a83d acd2 7d3c d209 11bd ac7d 81bd
00000240: ecc3 4fbd e861 ddbd 43d5 1fbd ea04 7dbd
00000250: 4167 c1bd 424d 8dba e817 3ebd c095 be3b
00000260: 7890 31bd 148e 313d 6c4e 09be 9c0a d8bc
00000270: cf93 0d3e b48d 543d 8e51 fc3d 66ec e33d
00000280: ec50 a2bd abef 92bd 005b cb3c 8087 b3bb
00000290: a002 593c 4492 ca3d da49 6bbd d2f1 98bd
000002a0: 28e2 05bd a218 d1bd b896 a63d c016 d33b
000002b0: 00c1 2a3a 20db efbd aae7 23bd 28a5 6dbd
000002c0: 5d33 053e 44a1 0abd 9c87 debd 2800 debd
000002d0: ae89 dd3d fec2 64bd e657 bbbd c16b c3bd
000002e0: c03d 233b 40ca 93bc 60eb b7bb a4c2 b83d
000002f0: 8041 a0bb 1e90 ee3d 6a1c 7cbd 7942 f5bd
00000300: 399d 073e 803e f4bb e47c 7bbd 14e0 4f3d
00000310: ce26 ea3d c0e0 ab3b 7ebc 01bd 7404 babd
00000320: 6cf0 88bd 82d5 bb3d f925 c1bd 2b47 243c
00000330: 8ad8 a9bd fb05 12be dde7 cb3d e6fd bb3d
00000340: e208 aebc 4a05 e7bc 3c78 363d f2ab 0f3d
00000350: 0086 fc3b 35ce 90bb 5ef9 9a3d 5f9c 4a3d
00000360: 40dc f9bc f896 c2bd f40d 0abd 461f 2b3d
00000370: 922c 0ebe 4656 7cbd 7a0b 033e 8bdd dcbd
00000380: 0a67 ad3d 471f 983d 6593 0a3e 869d 393d
00000390: 9189 adbd 84f5 8ebd 33e6 853c fc20 d5bd
000003a0: 2881 76bb dc46 d1bd 9cb3 bc3d 8863 5e3d
000003b0: cfdc ccbd 74aa 9cbd c99f de3c 0af9 253d
000003c0: 173c 073e 1bce 03be 1ca0 8e3d cae3 e63d
000003d0: 6083 83bc fcc9 063e 9453 b2bd 6b98 0a3e
000003e0: 4edf 0abc 3d0e 2fbd 2850 4ebd 9487 55bd
000003f0: 5603 87bd 4ed8 133e d973 083e 22bd fbbd
-0.0054039657 0.10453649 -0.06331495 -0.07164478 -0.08864193 -0.07605968 0.031652525 0.0802714
-0.10165198 0.039398402 0.018456284 0.086079046 0.12826152 0.052348614 0.04113485 0.13222009
-0.104662046 0.13556027 -0.10659329 0.14928399 -0.09471902 -0.058424704 -0.05490782 0.14843819
-0.002583425 0.00655448 0.08429567 0.11221861 0.030211963 0.14424837 0.04676289 0.085473314
0.15611108 -0.10783253 0.08734733 -0.15209024 -0.06303925 0.089349665 0.03230287 -0.078991696
-0.05715056 0.052900854 0.016357075 0.05979103 -0.10935097 0.05851419 0.019616686 -0.06492491
0.14154264 -0.1540063 -0.105354786 -0.06739748 -0.005137801 -0.06298194 -0.060744926 -0.019315109
-0.11385356 0.13812761 0.030820057 0.12984999 -0.012154251 -0.047342613 0.04384856 -0.092210814
-0.122469574 -0.082042284 -0.08817905 -0.07909247 0.07485303 0.0061550587 0.056484163 -0.082710564
2.6196241e-05 0.0035304576 -0.12847342 -0.12084976 -0.011619404 0.10702516 0.100679666 -0.0150517225
-0.035172746 -0.026643857 -0.10068683 0.018259376 0.124454096 0.0569859 0.07191354 0.1329859
-0.12695736 0.11076115 0.109302714 -0.12192487 -0.0012665838 0.09517364 -0.10039359 -0.017902479
0.11910172 -0.057789013 -0.015121713 0.019657224 -0.10682279 0.08781742 -0.076313816 0.11262913
0.12472962 0.04543965 -0.12533699 -0.07231447 0.01699904 0.08458761 0.1254641 0.15983537
0.0492125 -0.12768269 -0.11898592 0.12894565 -0.11338757 -0.013613259 -0.0883912 0.0067663873
0.08274798 0.01468429 0.04607594 0.17264085 -0.08626749 0.17594959 0.05943638 -0.022640612
0.06410113 0.16471173 0.16090268 0.0007007593 0.0758519 -0.008234522 0.015600756 -0.14697284
-0.06778107 0.045876518 0.08596808 -0.09659171 0.08216692 0.015492123 -0.035409756 -0.06322798
-0.050723955 -0.1080969 -0.03902174 -0.061772265 -0.09443522 -0.0010780471 -0.046409518 0.0058161914
-0.043350667 0.043348387 -0.13408822 -0.026372246 0.13825916 0.05189295 0.12320243 0.11129074
-0.07925591 -0.07174619 0.024823666 -0.0054787993 0.013245255 0.09891179 -0.057443477 -0.074679986
-0.032686383 -0.102097765 0.08134216 0.006441921 0.00065137446 -0.11711717 -0.040015854 -0.058018833
0.13007875 -0.0338452 -0.10865709 -0.108398736 0.10817276 -0.05585002 -0.09147625 -0.09542037
0.0024908632 -0.018040776 -0.0056127757 0.090215 -0.0048906207 0.11648582 -0.061550535 -0.11975569
0.1324357 -0.0074537396 -0.0613984 0.050750807 0.11433183 0.005245298 -0.0316739 -0.090828806
-0.06686482 0.09171583 -0.09431071 0.010026733 -0.08293255 -0.14260094 0.09956334 0.09179287
-0.02124447 -0.028200764 0.04454826 0.03507609 0.0077064037 -0.004419113 0.07567094 0.049465533
-0.030500531 -0.09501451 -0.033704713 0.04177787 -0.1388419 -0.061605714 0.12797347 -0.107844435
0.08466919 0.07427841 0.13532789 0.04531624 -0.08473504 -0.06980422 0.01634512 -0.10406682
-0.0037613604 -0.102185935 0.09213945 0.05429414 -0.100030534 -0.07649699 0.0271758 0.040520705
0.13206516 -0.12871592 0.06964132 0.11273916 -0.016053855 0.13162988 -0.087073475 0.13534705
-0.008476092 -0.042738188 -0.05036941 -0.05213125 -0.06592433 0.14437982 0.13325442 -0.122919336

layer2.bias f4 [10]
00000000: 19d7 91bd 78a9 e0bd af5f aabd a293 f3bd
00000010: 00be 1c3d c044 d93d ceba 48bd 9c3f b9bd
00000020: 6009 4b3c 4d93 a9bd
-0.07121105 -0.109698236 -0.083190314 -0.11893393 0.038267136 0.10608816 -0.049006276 -0.09045336
0.012392372 -0.082800485

output.weight f4 [1, 10]
00000000: 662d 563e 949f 233e 4172 0b3e 0068 fe3b
00000010: e87c 8dbd 1dd4 cfbc 063d 5abe 607f 9ebe
00000020: 46e8 6b3e 5d77 03be
0.20915756 0.15978843 0.13617803 0.0077638626 -0.069085896 -0.025369698 -0.21312341 -0.30956554
0.23037824 -0.12838502
